…
I1229 22:57:25.584776 25035 net.cpp:325] The NetState phase (0) differed from the phase (1) specified by a rule in layer mnist
I1229 22:57:25.584794 25035 net.cpp:325] The NetState phase (0) differed from the phase (1) specified by a rule in layer accuracy
I1229 22:57:25.585476 25035 net.cpp:52] Initializing net from parameters:
state {
phase: TRAIN
}
layer {
name: "mnist"
type: "Data"
top: "data"
top: "label"
include {
phase: TRAIN
}
transform_param {
mean_file: "/usr/share/digits/digits/jobs/20151229-225137-7d13/mean.binaryproto"
}
data_param {
source: "/usr/share/digits/digits/jobs/20151229-225137-7d13/train_db"
batch_size: 64
backend: LMDB
}
}
layer {
name: "scale"
type: "Power"
bottom: "data"
top: "scale"
power_param {
scale: 0.0125
}
}
layer {
name: "conv1"
type: "Convolution"
bottom: "scale"
top: "conv1"
param {
lr_mult: 1
}
param {
lr_mult: 2
}
convolution_param {
num_output: 20
kernel_size: 5
stride: 1
weight_filler {
type: "xavier"
}
bias_filler {
type: "constant"
}
}
}
layer {
name: "pool1"
type: "Pooling"
bottom: "conv1"
top: "pool1"
pooling_param {
pool: MAX
kernel_size: 2
stride: 2
}
}
layer {
name: "conv2"
type: "Convolution"
bottom: "pool1"
top: "conv2"
param {
lr_mult: 1
}
param {
lr_mult: 2
}
convolution_param {
num_output: 50
kernel_size: 5
stride: 1
weight_filler {
type: "xavier"
}
bias_filler {
type: "constant"
}
}
}
layer {
name: "pool2"
type: "Pooling"
bottom: "conv2"
top: "pool2"
pooling_param {
pool: MAX
kernel_size: 2
stride: 2
}
}
layer {
name: "ip1"
type: "InnerProduct"
bottom: "pool2"
top: "ip1"
param {
lr_mult: 1
}
param {
lr_mult: 2
}
inner_product_param {
num_output: 500
weight_filler {
type: "xavier"
}
bias_filler {
type: "constant"
}
}
}
layer {
name: "relu1"
type: "ReLU"
bottom: "ip1"
top: "ip1"
}
layer {
name: "ip2"
type: "InnerProduct"
bottom: "ip1"
top: "ip2"
param {
lr_mult: 1
}
param {
lr_mult: 2
}
inner_product_param {
num_output: 10
weight_filler {
type: "xavier"
}
bias_filler {
type: "constant"
}
}
}
layer {
name: "loss"
type: "SoftmaxWithLoss"
bottom: "ip2"
bottom: "label"
top: "loss"
}
I1229 22:57:25.585546 25035 layer_factory.hpp:76] Creating layer mnist
I1229 22:57:25.587195 25035 net.cpp:109] Creating Layer mnist
I1229 22:57:25.587219 25035 net.cpp:414] mnist -> data
I1229 22:57:25.587849 25035 net.cpp:414] mnist -> label
I1229 22:57:25.587862 25035 data_transformer.cpp:25] Loading mean file from: /usr/share/digits/digits/jobs/20151229-225137-7d13/mean.binaryproto
I1229 22:57:25.589268 25043 db_lmdb.cpp:36] Opened lmdb /usr/share/digits/digits/jobs/20151229-225137-7d13/train_db
I1229 22:57:25.596165 25035 data_layer.cpp:45] output data size: 64,1,28,28
I1229 22:57:25.597373 25035 net.cpp:153] Setting up mnist
I1229 22:57:25.597388 25035 net.cpp:160] Top shape: 64 1 28 28 (50176)
I1229 22:57:25.597393 25035 net.cpp:160] Top shape: 64 (64)
I1229 22:57:25.597396 25035 net.cpp:168] Memory required for data: 200960
I1229 22:57:25.597403 25035 layer_factory.hpp:76] Creating layer scale
I1229 22:57:25.609113 25035 net.cpp:109] Creating Layer scale
I1229 22:57:25.609135 25035 net.cpp:457] scale <- data
I1229 22:57:25.609148 25035 net.cpp:414] scale -> scale
I1229 22:57:25.610311 25035 net.cpp:153] Setting up scale
I1229 22:57:25.610322 25035 net.cpp:160] Top shape: 64 1 28 28 (50176)
I1229 22:57:25.610342 25035 net.cpp:168] Memory required for data: 401664
I1229 22:57:25.610344 25035 layer_factory.hpp:76] Creating layer conv1
I1229 22:57:25.610357 25035 net.cpp:109] Creating Layer conv1
I1229 22:57:25.610359 25035 net.cpp:457] conv1 <- scale
I1229 22:57:25.610365 25035 net.cpp:414] conv1 -> conv1
I1229 22:57:25.610576 25035 net.cpp:153] Setting up conv1
I1229 22:57:25.610584 25035 net.cpp:160] Top shape: 64 20 24 24 (737280)
I1229 22:57:25.610587 25035 net.cpp:168] Memory required for data: 3350784
I1229 22:57:25.610599 25035 layer_factory.hpp:76] Creating layer pool1
I1229 22:57:25.610605 25035 net.cpp:109] Creating Layer pool1
I1229 22:57:25.610608 25035 net.cpp:457] pool1 <- conv1
I1229 22:57:25.610612 25035 net.cpp:414] pool1 -> pool1
I1229 22:57:25.610646 25035 net.cpp:153] Setting up pool1
I1229 22:57:25.610653 25035 net.cpp:160] Top shape: 64 20 12 12 (184320)
I1229 22:57:25.610656 25035 net.cpp:168] Memory required for data: 4088064
I1229 22:57:25.610659 25035 layer_factory.hpp:76] Creating layer conv2
I1229 22:57:25.610666 25035 net.cpp:109] Creating Layer conv2
I1229 22:57:25.610668 25035 net.cpp:457] conv2 <- pool1
I1229 22:57:25.610674 25035 net.cpp:414] conv2 -> conv2
I1229 22:57:25.610949 25035 net.cpp:153] Setting up conv2
I1229 22:57:25.610955 25035 net.cpp:160] Top shape: 64 50 8 8 (204800)
I1229 22:57:25.610959 25035 net.cpp:168] Memory required for data: 4907264
I1229 22:57:25.610965 25035 layer_factory.hpp:76] Creating layer pool2
I1229 22:57:25.610970 25035 net.cpp:109] Creating Layer pool2
I1229 22:57:25.610972 25035 net.cpp:457] pool2 <- conv2
I1229 22:57:25.610976 25035 net.cpp:414] pool2 -> pool2
I1229 22:57:25.611001 25035 net.cpp:153] Setting up pool2
I1229 22:57:25.611006 25035 net.cpp:160] Top shape: 64 50 4 4 (51200)
I1229 22:57:25.611009 25035 net.cpp:168] Memory required for data: 5112064
I1229 22:57:25.611011 25035 layer_factory.hpp:76] Creating layer ip1
I1229 22:57:25.611021 25035 net.cpp:109] Creating Layer ip1
I1229 22:57:25.611023 25035 net.cpp:457] ip1 <- pool2
I1229 22:57:25.611028 25035 net.cpp:414] ip1 -> ip1
I1229 22:57:25.613528 25035 net.cpp:153] Setting up ip1
I1229 22:57:25.613539 25035 net.cpp:160] Top shape: 64 500 (32000)
I1229 22:57:25.613541 25035 net.cpp:168] Memory required for data: 5240064
I1229 22:57:25.613548 25035 layer_factory.hpp:76] Creating layer relu1
I1229 22:57:25.613554 25035 net.cpp:109] Creating Layer relu1
I1229 22:57:25.613557 25035 net.cpp:457] relu1 <- ip1
I1229 22:57:25.613561 25035 net.cpp:400] relu1 -> ip1 (in-place)
I1229 22:57:25.613570 25035 net.cpp:153] Setting up relu1
I1229 22:57:25.613574 25035 net.cpp:160] Top shape: 64 500 (32000)
I1229 22:57:25.613576 25035 net.cpp:168] Memory required for data: 5368064
I1229 22:57:25.613579 25035 layer_factory.hpp:76] Creating layer ip2
I1229 22:57:25.613585 25035 net.cpp:109] Creating Layer ip2
I1229 22:57:25.613589 25035 net.cpp:457] ip2 <- ip1
I1229 22:57:25.613593 25035 net.cpp:414] ip2 -> ip2
I1229 22:57:25.614159 25035 net.cpp:153] Setting up ip2
I1229 22:57:25.614178 25035 net.cpp:160] Top shape: 64 10 (640)
I1229 22:57:25.614181 25035 net.cpp:168] Memory required for data: 5370624
I1229 22:57:25.614187 25035 layer_factory.hpp:76] Creating layer loss
I1229 22:57:25.614555 25035 net.cpp:109] Creating Layer loss
I1229 22:57:25.614562 25035 net.cpp:457] loss <- ip2
I1229 22:57:25.614567 25035 net.cpp:457] loss <- label
I1229 22:57:25.614572 25035 net.cpp:414] loss -> loss
I1229 22:57:25.614579 25035 layer_factory.hpp:76] Creating layer loss
…
I1229 22:57:25.615023 25035 solver.cpp:187] Creating test net (#0) specified by net file: train_val.prototxt
I1229 22:57:25.615046 25035 net.cpp:325] The NetState phase (1) differed from the phase (0) specified by a rule in layer mnist
I1229 22:57:25.615128 25035 net.cpp:52] Initializing net from parameters:
state {
phase: TEST
}
layer {
name: "mnist"
type: "Data"
top: "data"
top: "label"
include {
phase: TEST
}
transform_param {
mean_file: "/usr/share/digits/digits/jobs/20151229-225137-7d13/mean.binaryproto"
}
data_param {
source: "/usr/share/digits/digits/jobs/20151229-225137-7d13/val_db"
batch_size: 100
backend: LMDB
}
}
layer {
name: "scale"
type: "Power"
bottom: "data"
top: "scale"
power_param {
scale: 0.0125
}
}
layer {
name: "conv1"
type: "Convolution"
bottom: "scale"
top: "conv1"
param {
lr_mult: 1
}
param {
lr_mult: 2
}
convolution_param {
num_output: 20
kernel_size: 5
stride: 1
weight_filler {
type: "xavier"
}
bias_filler {
type: "constant"
}
}
}
layer {
name: "pool1"
type: "Pooling"
bottom: "conv1"
top: "pool1"
pooling_param {
pool: MAX
kernel_size: 2
stride: 2
}
}
layer {
name: "conv2"
type: "Convolution"
bottom: "pool1"
top: "conv2"
param {
lr_mult: 1
}
param {
lr_mult: 2
}
convolution_param {
num_output: 50
kernel_size: 5
stride: 1
weight_filler {
type: "xavier"
}
bias_filler {
type: "constant"
}
}
}
layer {
name: "pool2"
type: "Pooling"
bottom: "conv2"
top: "pool2"
pooling_param {
pool: MAX
kernel_size: 2
stride: 2
}
}
layer {
name: "ip1"
type: "InnerProduct"
bottom: "pool2"
top: "ip1"
param {
lr_mult: 1
}
param {
lr_mult: 2
}
inner_product_param {
num_output: 500
weight_filler {
type: "xavier"
}
bias_filler {
type: "constant"
}
}
}
layer {
name: "relu1"
type: "ReLU"
bottom: "ip1"
top: "ip1"
}
layer {
name: "ip2"
type: "InnerProduct"
bottom: "ip1"
top: "ip2"
param {
lr_mult: 1
}
param {
lr_mult: 2
}
inner_product_param {
num_output: 10
weight_filler {
type: "xavier"
}
bias_filler {
type: "constant"
}
}
}
layer {
name: "loss"
type: "SoftmaxWithLoss"
bottom: "ip2"
bottom: "label"
top: "loss"
}
layer {
name: "accuracy"
type: "Accuracy"
bottom: "ip2"
bottom: "label"
top: "accuracy"
include {
phase: TEST
}
}
I1229 22:57:25.615181 25035 layer_factory.hpp:76] Creating layer mnist
I1229 22:57:25.615442 25035 net.cpp:109] Creating Layer mnist
I1229 22:57:25.615452 25035 net.cpp:414] mnist -> data
I1229 22:57:25.615458 25035 net.cpp:414] mnist -> label
I1229 22:57:25.615465 25035 data_transformer.cpp:25] Loading mean file from: /usr/share/digits/digits/jobs/20151229-225137-7d13/mean.binaryproto
I1229 22:57:25.616971 25045 db_lmdb.cpp:36] Opened lmdb /usr/share/digits/digits/jobs/20151229-225137-7d13/val_db
I1229 22:57:25.617118 25035 data_layer.cpp:45] output data size: 100,1,28,28
I1229 22:57:25.618151 25035 net.cpp:153] Setting up mnist
I1229 22:57:25.618162 25035 net.cpp:160] Top shape: 100 1 28 28 (78400)
I1229 22:57:25.618166 25035 net.cpp:160] Top shape: 100 (100)
I1229 22:57:25.618170 25035 net.cpp:168] Memory required for data: 314000
I1229 22:57:25.618172 25035 layer_factory.hpp:76] Creating layer label_mnist_1_split
I1229 22:57:25.618191 25035 net.cpp:109] Creating Layer label_mnist_1_split
I1229 22:57:25.618193 25035 net.cpp:457] label_mnist_1_split <- label
I1229 22:57:25.618197 25035 net.cpp:414] label_mnist_1_split -> label_mnist_1_split_0
I1229 22:57:25.618203 25035 net.cpp:414] label_mnist_1_split -> label_mnist_1_split_1
I1229 22:57:25.618258 25035 net.cpp:153] Setting up label_mnist_1_split
I1229 22:57:25.618264 25035 net.cpp:160] Top shape: 100 (100)
I1229 22:57:25.618268 25035 net.cpp:160] Top shape: 100 (100)
I1229 22:57:25.618270 25035 net.cpp:168] Memory required for data: 314800
I1229 22:57:25.618273 25035 layer_factory.hpp:76] Creating layer scale
I1229 22:57:25.618278 25035 net.cpp:109] Creating Layer scale
I1229 22:57:25.618280 25035 net.cpp:457] scale <- data
I1229 22:57:25.618285 25035 net.cpp:414] scale -> scale
I1229 22:57:25.618300 25035 net.cpp:153] Setting up scale
I1229 22:57:25.618305 25035 net.cpp:160] Top shape: 100 1 28 28 (78400)
I1229 22:57:25.618307 25035 net.cpp:168] Memory required for data: 628400
I1229 22:57:25.618309 25035 layer_factory.hpp:76] Creating layer conv1
I1229 22:57:25.618316 25035 net.cpp:109] Creating Layer conv1
I1229 22:57:25.618319 25035 net.cpp:457] conv1 <- scale
I1229 22:57:25.618324 25035 net.cpp:414] conv1 -> conv1
I1229 22:57:25.618474 25035 net.cpp:153] Setting up conv1
I1229 22:57:25.618480 25035 net.cpp:160] Top shape: 100 20 24 24 (1152000)
I1229 22:57:25.618482 25035 net.cpp:168] Memory required for data: 5236400
I1229 22:57:25.618489 25035 layer_factory.hpp:76] Creating layer pool1
I1229 22:57:25.618495 25035 net.cpp:109] Creating Layer pool1
I1229 22:57:25.618501 25035 net.cpp:457] pool1 <- conv1
I1229 22:57:25.618505 25035 net.cpp:414] pool1 -> pool1
I1229 22:57:25.618577 25035 net.cpp:153] Setting up pool1
I1229 22:57:25.618583 25035 net.cpp:160] Top shape: 100 20 12 12 (288000)
I1229 22:57:25.618585 25035 net.cpp:168] Memory required for data: 6388400
I1229 22:57:25.618588 25035 layer_factory.hpp:76] Creating layer conv2
I1229 22:57:25.618599 25035 net.cpp:109] Creating Layer conv2
I1229 22:57:25.618640 25035 net.cpp:457] conv2 <- pool1
I1229 22:57:25.618649 25035 net.cpp:414] conv2 -> conv2
I1229 22:57:25.618991 25035 net.cpp:153] Setting up conv2
I1229 22:57:25.618999 25035 net.cpp:160] Top shape: 100 50 8 8 (320000)
I1229 22:57:25.619000 25035 net.cpp:168] Memory required for data: 7668400
I1229 22:57:25.619006 25035 layer_factory.hpp:76] Creating layer pool2
I1229 22:57:25.619010 25035 net.cpp:109] Creating Layer pool2
I1229 22:57:25.619014 25035 net.cpp:457] pool2 <- conv2
I1229 22:57:25.619019 25035 net.cpp:414] pool2 -> pool2
I1229 22:57:25.619043 25035 net.cpp:153] Setting up pool2
I1229 22:57:25.619048 25035 net.cpp:160] Top shape: 100 50 4 4 (80000)
I1229 22:57:25.619050 25035 net.cpp:168] Memory required for data: 7988400
I1229 22:57:25.619053 25035 layer_factory.hpp:76] Creating layer ip1
I1229 22:57:25.619058 25035 net.cpp:109] Creating Layer ip1
I1229 22:57:25.619061 25035 net.cpp:457] ip1 <- pool2
I1229 22:57:25.619065 25035 net.cpp:414] ip1 -> ip1
I1229 22:57:25.621523 25035 net.cpp:153] Setting up ip1
I1229 22:57:25.621533 25035 net.cpp:160] Top shape: 100 500 (50000)
I1229 22:57:25.621536 25035 net.cpp:168] Memory required for data: 8188400
I1229 22:57:25.621543 25035 layer_factory.hpp:76] Creating layer relu1
I1229 22:57:25.621552 25035 net.cpp:109] Creating Layer relu1
I1229 22:57:25.621556 25035 net.cpp:457] relu1 <- ip1
I1229 22:57:25.621561 25035 net.cpp:400] relu1 -> ip1 (in-place)
I1229 22:57:25.621567 25035 net.cpp:153] Setting up relu1
I1229 22:57:25.621570 25035 net.cpp:160] Top shape: 100 500 (50000)
I1229 22:57:25.621572 25035 net.cpp:168] Memory required for data: 8388400
I1229 22:57:25.621575 25035 layer_factory.hpp:76] Creating layer ip2
I1229 22:57:25.621582 25035 net.cpp:109] Creating Layer ip2
I1229 22:57:25.621584 25035 net.cpp:457] ip2 <- ip1
I1229 22:57:25.621588 25035 net.cpp:414] ip2 -> ip2
I1229 22:57:25.621686 25035 net.cpp:153] Setting up ip2
I1229 22:57:25.621691 25035 net.cpp:160] Top shape: 100 10 (1000)
I1229 22:57:25.621706 25035 net.cpp:168] Memory required for data: 8392400
I1229 22:57:25.621713 25035 layer_factory.hpp:76] Creating layer ip2_ip2_0_split
I1229 22:57:25.621719 25035 net.cpp:109] Creating Layer ip2_ip2_0_split
I1229 22:57:25.621722 25035 net.cpp:457] ip2_ip2_0_split <- ip2
I1229 22:57:25.621727 25035 net.cpp:414] ip2_ip2_0_split -> ip2_ip2_0_split_0
I1229 22:57:25.621732 25035 net.cpp:414] ip2_ip2_0_split -> ip2_ip2_0_split_1
I1229 22:57:25.621755 25035 net.cpp:153] Setting up ip2_ip2_0_split
I1229 22:57:25.621759 25035 net.cpp:160] Top shape: 100 10 (1000)
I1229 22:57:25.621763 25035 net.cpp:160] Top shape: 100 10 (1000)
I1229 22:57:25.621765 25035 net.cpp:168] Memory required for data: 8400400
I1229 22:57:25.621768 25035 layer_factory.hpp:76] Creating layer loss
I1229 22:57:25.621773 25035 net.cpp:109] Creating Layer loss
I1229 22:57:25.621776 25035 net.cpp:457] loss <- ip2_ip2_0_split_0
I1229 22:57:25.621779 25035 net.cpp:457] loss <- label_mnist_1_split_0
I1229 22:57:25.621784 25035 net.cpp:414] loss -> loss
…
